model_v2.tflite (tflite, 236616 bytes, 10 tensors)

dense_1/bias f4 [14]
00000000: 0a59 683b 5081 f5bb 5ddf 133d 87c9 b03c
00000010: 47c3 b8bc 50b6 37bc 5c7c f63c c3fb 103c
00000020: 9ac9 95bc 3a82 7dbc 1089 20bd 2ac7 d23a
00000030: ed8a 0f3c dd1c 29bb
0.0035453462 -0.007492222 0.036101688 0.02158047 -0.022554053 -0.0112129 0.030088596 0.008849087
-0.018284608 -0.015472943 -0.039193213 0.0016081084 0.00876115 -0.0025804557

dense/bias f4 [128]
00000000: 06f5 1d3d f8e5 9f3c 3a3f 183c 7ada 94bc
00000010: 763b 713d 1ba0 813c 77d9 7d3c 8258 e4bc
00000020: 6c37 70bc 4ad5 4d3c 20e7 d1bc de2b 3abc
00000030: 9ac9 2f3a d95f 67bc 715b bf3c 848c aa3c
00000040: 8272 1f3d 876f 653c dbdc 953a f80a 2d3b
00000050: 1f38 91bc 960f ba3c 6abe 63bc c7f7 a43c
00000060: 4bca 1dbb 3667 a33b b7c0 84bb 0165 053d
00000070: ec2f 5dbb 9734 3a3d ae12 1e3d 1690 6e3d
00000080: 06f1 0d3c 013c a33c bae0 a63a bbf8 e93c
00000090: 23ee 7a3d 7226 1f3b ba4c 54bd 0dfc 22bc
000000a0: 3a1a de3b f649 403d 15b3 fb3c 44aa ff3a
000000b0: 7153 203c 3138 a73c 543b 28ba bafa 913c
000000c0: 1c0f da3b c481 5fba 2de4 00bc 68ea 2f3c
000000d0: 8678 6cbc 5e29 4d3c 055c d23b 3496 19bc
000000e0: 5ab3 bdbc 199d a23c e534 83bb f735 8d3c
000000f0: 8d2c c53c 7d42 29bc d307 5dbc acd7 943d
00000100: da65 39bc 74c0 12bc 9a6f 183c b8b5 00bb
00000110: cdd1 d3ba 6012 a53b 71d9 3a3d e642 7bbc
00000120: 9af6 1b3c 9db4 ee3b f594 8e3c 1ad9 f33c
00000130: 4b9d 37bc e752 12bd 7c77 5e3d d45a 273d
00000140: 8e8b 283c c7f8 22bd 898e 2b3d 1544 2ebc
00000150: 07ae cf3c ceda c7bc 66d4 683c 7a9c 033d
00000160: 917c 48bb 8221 9abc 6f82 053c 9ca1 113c
00000170: f085 123d 9253 313d b597 a7bc 9108 bcbb
00000180: af09 36bc 851c 763d 8df1 8d3b 910d 88bd
00000190: ea02 f63c 454c 03bd 1789 1a3d b1f1 ba3c
000001a0: 34ee 17bb e33d cf3a 75f3 743d e64f cf3c
000001b0: e946 f13b cb2a 91bc f9e8 683c 8c71 dcba
000001c0: 0507 d0bb 34c6 be3c df04 f6bc 1337 ca3c
000001d0: 44ff 0a3d f8a6 4a3c 98c4 80bc 2d01 9cba
000001e0: 6960 28bd ca48 0a3d 3fe4 4a3d daae 00bd
000001f0: 14b9 43bc 5cb1 3e3d 1ccd c93c 852f 383d
0.03856375 0.019518837 0.009292418 -0.018170584 0.058894597 0.015823415 0.015493742 -0.027874235
-0.014661651 0.012563059 -0.025622904 -0.011362998 0.0006705761 -0.014121973 0.023359032 0.020818956
0.038927563 0.014003641 0.0011433618 0.0026404243 -0.017726956 0.02271251 -0.013900379 0.02013768
-0.0024076875 0.004986669 -0.0040512937 0.032567028 -0.0033750487 0.04546031 0.038592033 0.05824288
0.0086634215 0.019926073 0.0012731769 0.028560987 0.06126226 0.002428439 -0.051830985 -0.009947789
0.006778029 0.046945535 0.030725041 0.0019505699 0.009785519 0.020412536 -0.0006417532 0.017819751
0.006654633 -0.00085261115 -0.007866901 0.010737039 -0.014433032 0.01252207 0.006419661 -0.00937419
-0.02315681 0.0198503 -0.0040041083 0.017237647 0.024069095 -0.010330793 -0.013490635 0.07267699
-0.011315787 -0.008957017 0.009303952 -0.0019639563 -0.0016160548 0.005037591 0.045617525 -0.015335774
0.009519244 0.0072847144 0.017405013 0.029766608 -0.011206935 -0.035723593 0.054313168 0.040858105
0.010287179 -0.039788034 0.04188398 -0.010636349 0.025351537 -0.024396326 0.014210796 0.03213165
-0.0030591825 -0.018814806 0.008148774 0.008888628 0.035772264 0.04329259 -0.020458082 -0.005738326
-0.011110707 0.060085792 0.0043317736 -0.066432126 0.030030686 -0.03205516 0.037728395 0.022820326
-0.0023182752 0.001581129 0.05980249 0.025306653 0.0073631895 -0.0177206 0.014215701 -0.0016818508
-0.006348493 0.02328787 -0.03003162 0.024684465 0.033934847 0.01236891 -0.015718743 -0.0011902206
-0.04110757 0.033760823 0.04953408 -0.03141675 -0.0119459815 0.04655586 0.024633937 0.044967193

conv2d_2/bias f4 [64]
00000000: bcfc bfbc f93a 0cbc 5b31 bd3c 3719 8ebd
00000010: 30f7 2abd 5c53 e9bc 1c4e 2dbb d23d d13b
00000020: 9d45 35bd d099 e4bc 1467 4dbc e178 5d3c
00000030: 4478 a2bc 7aca d4bc c2e7 0abd ed70 75bd
00000040: 27c4 af3c ff72 1abd 63f8 28bd b67c 52bc
00000050: 4480 31bd cf03 4abd 345f aabc b922 2ebd
00000060: 0329 313d 2e8a 77bc 1e3e 503d 318d 75bc
00000070: ead0 a3bc f040 0bbd 0129 40bd 5e12 02bd
00000080: 3187 7ebc bef3 e3bb b2be 33bd abd9 00bd
00000090: de2a 35bc 049f fbbb ae66 05bc 4873 b1bc
000000a0: 3af5 abbc 71fc abbc 3558 08bd 2066 13bc
000000b0: 2e24 77bb a6ea 1abb a31f 00bd 4106 63bd
000000c0: 7fbf be3c 6ae6 f1bc 91ce 28bc 1aa9 44bd
000000d0: 30c7 3fbd ba8e c6bb 7bf0 8ebb 5eaa 36bd
000000e0: d455 ddbc c1a0 93bc f42c 96bc d64a 27bc
000000f0: ee85 eebc 09a6 03bd 9380 253d bf35 c2bc
-0.023435943 -0.008558982 0.023094824 -0.06938403 -0.041739643 -0.028482132 -0.0026444262 0.0063855434
-0.04425584 -0.027905375 -0.012536783 0.013517589 -0.019832738 -0.025975455 -0.033912428 -0.059922148
0.021455837 -0.037707325 -0.041252505 -0.012847116 -0.043335214 -0.04932004 -0.02079735 -0.042513583
0.043252002 -0.015108628 0.05084049 -0.014987276 -0.019997079 -0.033997476 -0.046914104 -0.031755798
-0.015535162 -0.0069565466 -0.043883033 -0.031457584 -0.011057584 -0.0076788682 -0.0081421565 -0.021661416
-0.020990957 -0.020994397 -0.033287246 -0.0089965165 -0.0037710774 -0.0023638397 -0.03128017 -0.055425886
0.023284672 -0.029528815 -0.0103031555 -0.04801283 -0.04682082 -0.006059495 -0.0043621636 -0.04459607
-0.027018465 -0.01802099 -0.018331982 -0.010210713 -0.029116597 -0.032140765 0.04040582 -0.023707269

conv2d_1/bias f4 [32]
00000000: fcd9 e93b fe01 813c 9bfb 943c febf 1e3c
00000010: 5643 2e3c d521 46b9 a326 d23b afee 463c
00000020: b440 483c 114f 38bb d159 0cbc 18e4 ab3b
00000030: 489c 383c 208e 0c3c 4326 ea3c 7eb1 6f3c
00000040: b87b 643b 3b5e 2b3c dfde 1a3b 108e 8b3c
00000050: f47b dfbb e234 f83c 89fd 3a3c 23d2 413c
00000060: 9685 163d 3ef5 0a3c f26c c13a c45a f13b
00000070: 0637 5fba 710a c13b 47a1 853c f561 493a
0.0071365815 0.01574802 0.018186381 0.009689329 0.010636171 -0.00018895355 0.0064132973 0.012141868
0.012222458 -0.00281233 -0.008566336 0.0052456968 0.011267729 0.008578807 0.028582698 0.01462972
0.0034863781 0.010459478 0.0023631377 0.017035514 -0.0068201963 0.030298654 0.011412987 0.011829886
0.03674849 0.008481322 0.00147572 0.0073655564 -0.0008514974 0.0058911373 0.016312255 0.0007682138

conv2d/bias f4 [16]
00000000: 0bc0 393b 075b 723b 0ba9 e63d 798f dd3d
00000010: 897a 07be ed5c 143e 4205 343d f7e6 213e
00000020: e3ff b33d 89f4 83bd 0d0f ff3d fbce 8d3d
00000030: b3ef d13d a9d3 8e3d b1dd cdbc 0e04 53bd
0.0028343226 0.0036980526 0.11262711 0.10818381 -0.13230337 0.14488573 0.043950327 0.15810762
0.08789041 -0.06443126 0.124540426 0.06924244 0.10250797 0.06973965 -0.025130125 -0.05151754

sequential/dense/MatMul f4 [128, 256]
00000000: fc22 cb3d 70b9 d2bd a778 053c 8794 bb3d
00000010: 9544 53bd 6c7b 503d 7e8e 24be 1613 9c3c
00000020: ba86 34bc a1e1 04bd b528 8a3d 49e0 f83d
00000030: 976b 113e 51c8 66bd 5edc b9bd b58a 103e
00000040: bd0b 323e 92af a0bd d490 52bc 05f3 163e
00000050: 1ef8 1a3e 6ad2 c23d 6fce 6f3c 835a f1bd
00000060: 09e2 1f3c cfe9 e43d 6ad2 f2bc a93a 453d
00000070: 39ef 90bd 3664 c1bd eece 573e 9409 e4bd
00000080: 0540 8bbc 04b2 93bd 97a0 3e3d 2ba8 ae3d
00000090: cedd eabb 8205 1b3d e913 cf3c 3dc5 fb3d
000000a0: f371 76bb c14c 56bd eb67 93bd 6460 b53d
000000b0: 9850 cdbd 4e64 bf3d e851 21be e544 45be
000000c0: 1f23 313d f4fa 73bd d428 1cbd 9ff6 5f3d
000000d0: 5423 3c3d 17f0 4e3d 5122 993d 8374 6b3b
000000e0: 7b80 0d3e 5e85 893d 2a73 85bd 61d8 de3c
000000f0: 0188 cfbd d434 10be 9574 523c f0b4 d9bc
00000100: 24a0 a4bc 722b d7bd 7256 b63d dd13 b33d
00000110: f769 3abd ba76 08bd 78d3 34be 1727 18bd
00000120: 4810 043e b0d2 fe3d dd68 87bd 1e11 11bd
00000130: 20d9 963d ff32 c4bc 8849 72be 8df7 053d
00000140: 1742 433e 582a 07be 1eee cc3d d6c9 333d
00000150: 1fc7 4a3e b2ea c63d e825 24bd 75a1 8a3d
00000160: 4e00 333d 6c4e 4d3d e779 673d 44e6 1a3e
00000170: f77b f6bd e427 18bd b33c 6c3e 6ee8 adbd
00000180: 976a 1c3e c22b a33c f943 a43c fdca 183d
00000190: 1298 63bc 7d21 773c 8265 e63d c17e 003d
000001a0: 278e 4dbc 9eac 5dbc 8415 27be 2aee 893d
000001b0: 94ae 63bd 55e5 e23d b9f6 66be ac93 dabd
000001c0: ab1c f53d fcc8 2e3e 6392 8fbb 7004 cabc
000001d0: bf5e 2b3e 2f23 403c 1bf2 e53d eaf0 403d
000001e0: daba 2bbc 7cf9 3e3d e924 32bd 98b6 823e
000001f0: af9b bf3d 77b9 19be 8a2c 17bc 67a2 003b
00000200: 7592 e7bd 44b4 973d e234 5fbd 5069 433d
00000210: 48b1 f53d 367e 173d 1b18 5abd 4e9c 8f3c
00000220: 1547 803d 59b3 d53d 6dc1 f4bd 8d67 c33d
00000230: 2fd1 13bd a26d 913d d313 eebc bcf6 37bd
00000240: a964 873d 0ef6 353c 0ae1 c2bd b4e4 cd3b
00000250: 9bf8 f3bc 72d5 49bb f250 463d b78b 84bd
00000260: bc1b 943b adc8 4ebd fb12 433e 9b8b 02bc
00000270: b326 e13d 5c74 153d 24c4 4d3d 6b0d 4bbd
00000280: 868d cf3d 97eb 94bd 7489 ccbd 6c63 74bd
00000290: ddc8 ad3c e28b f33c 49ba cebc 084b a93d
000002a0: 187d 8fbb b7eb cbbd 2815 ae3c 243c acbd
000002b0: c0c4 2fbd 8def aebc 6b00 1fbd 33ed 23be
000002c0: 587b 143e 31fb 17bd af61 edbd 2f37 5e3c
000002d0: 4106 f3bd 74b6 d0bd 5ce6 01be 816f ebbd
000002e0: 4995 ab3d 3666 bfbd fbbb ccbd 6dd4 69bd
000002f0: e786 233d f7c5 07be 0d06 ee3d 54d1 34bd
00000300: 4ffe e03d 8351 493d fa7a 0dbc 43a1 083e
00000310: cd5e 79bb 8a63 40be ae4f aa3d f6f0 d4bc
00000320: 5212 1a3d 3fd1 063e 9c8f 02bd cbe7 053b
00000330: 9516 963d 7d59 19be 6cf6 aebd 5f31 4d3c
00000340: fd2c 803c 7f98 bcbd 209e ac3d f84b 68bd
00000350: bcb5 f73b 357c 2abe 7f0d d53c 2551 cfbd
00000360: 2869 723d 27a5 91bd fb9c 253e 32ca 123c
00000370: 171a d43d 138c 0cbe 006e ef3a 584d cabc
00000380: 4ca1 a03d 41fa d73c 6e5a 95bc 2985 953d
00000390: aeeb c03d 81e3 8f3d 074f ce3b 763a 5fbd
000003a0: b181 593d b87b 2d3d 2820 8abd 1884 c53d
000003b0: 832d 7b3b 7830 abbd 1301 08be 2791 52be
000003c0: 2f94 04bd 4cda 1e3c 3903 8d3d d92d 0bbe
000003d0: 3a57 94bd 898e 84bd 423f 3dbe 8eab 89bd
000003e0: 7060 7bbd 65c3 b1bd ddc8 58bd b103 cf3c
000003f0: 3250 15bd 9655 b8bd d237 233e 966b f2bc
0.09918782 -0.10289276 0.008146442 0.09159189 -0.051579077 0.050898954 -0.16069981 0.01905207
-0.011018449 -0.03244174 0.067460455 0.12152154 0.14201199 -0.05634338 -0.09075235 0.14115413
0.1738729 -0.078459874 -0.0128519125 0.14741142 0.15133712 0.095127895 0.01463662 -0.11784842
0.009758481 0.11177408 -0.029641349 0.048151646 -0.07076878 -0.09442942 0.21075031 -0.111346394
-0.0169983 -0.07211688 0.04653987 0.08528169 -0.0071675545 0.03784705 0.025278049 0.122934796
-0.003760454 -0.052319292 -0.07197555 0.08856276 -0.10025138 0.093453035 -0.15753901 -0.19264562
0.043246385 -0.0595655 -0.038124874 0.054678556 0.04593213 0.050521936 0.074772485 0.00359276
0.13818543 0.06714891 -0.065161064 0.027202787 -0.101333626 -0.14082652 0.012845178 -0.026575536
-0.020095892 -0.105063334 0.08903207 0.08744023 -0.045511212 -0.03331635 -0.17658794 -0.037146654
0.12896836 0.12442529 -0.06611798 -0.035416715 0.07365632 -0.023950098 -0.23660862 0.032706786
0.1906818 -0.13199747 0.10006355 0.043893658 0.19802521 0.09712733 -0.040075213 0.06769077
0.043701462 0.050123617 0.05651274 0.15126902 -0.12035363 -0.037147418 0.2307003 -0.08491598
0.15275036 0.019918326 0.020051943 0.03730296 -0.013891237 0.015083668 0.1124983 0.031370882
-0.012546099 -0.013529925 -0.16316801 0.06734879 -0.055586413 0.11078898 -0.22555055 -0.106726974
0.119683586 0.17068857 -0.0043814643 -0.02466032 0.16735362 0.011727138 0.112278186 0.047104754
-0.010481561 0.046624646 -0.04349223 0.25529933 0.09355866 -0.15012155 -0.0092269275 0.001962805
-0.11307231 0.0740743 -0.054493792 0.047707856 0.11996704 0.0369856 -0.053245645 0.017530587
0.06263558 0.104345985 -0.119509555 0.09541235 -0.036088165 0.07100989 -0.029062187 -0.04491304
0.06610996 0.011106027 -0.09515579 0.006283367 -0.02978163 -0.003079739 0.04841704 -0.06471961
0.0045199078 -0.050484348 0.19050209 -0.007967855 0.109937094 0.036487922 0.050235882 -0.049573343
0.10134415 -0.07271498 -0.099871546 -0.05966513 0.021213943 0.029729787 -0.025235312 0.08266264
-0.004378926 -0.099570684 0.021250322 -0.084099084 -0.042912245 -0.021354461 -0.038818758 -0.16008453
0.14500177 -0.03710479 -0.11590897 0.0135629615 -0.11866427 -0.1019105 -0.12685531 -0.11495877
0.08378083 -0.09345667 -0.09996792 -0.05708735 0.039923575 -0.13259111 0.11622248 -0.044144943
0.109860055 0.04915 -0.008635277 0.13342766 -0.003805089 -0.18787971 0.08315979 -0.025993805
0.037615128 0.13165759 -0.031875238 0.0020432349 0.07328526 -0.14975543 -0.08543095 0.012523978
0.015646452 -0.09208774 0.084285975 -0.056713074 0.007559506 -0.16648944 0.026007412 -0.10122899
0.059182316 -0.071115784 0.16173165 0.00895934 0.10356539 -0.13725309 0.0018267035 -0.024695083
0.07843265 0.026364448 -0.018231597 0.07300789 0.09419952 0.07025815 0.006296042 -0.054499112
0.0531022 0.042354316 -0.067444146 0.096443355 0.0038326688 -0.08358854 -0.1328166 -0.20563184
-0.03236788 0.009695601 0.0688538 -0.13591708 -0.072432 -0.06472499 -0.18481162 -0.067221746
-0.061371267 -0.08679847 -0.052925933 0.025270315 -0.036453433 -0.09000699 0.15939263 -0.029592317

sequential/dense_1/MatMul f4 [14, 128]
00000000: 00b7 4e3e fc60 ba3c 342f f5be a70f 04be
00000010: cc80 2a3e c150 46b9 fdb1 0abe d197 77be
00000020: 25b0 a8be e64a 90bd acf7 8c3d c1b7 05be
00000030: 26e4 86be 1d04 1fbe a3b2 3bbd 4914 86be
00000040: e886 283e cfdb 95be 309a d2bd 3334 ecbe
00000050: 71aa 743d 923c 72be b14b 11be 148a 0d3e
00000060: 1016 a43d 6917 5bbe 6cc8 973d c232 273e
00000070: 13b0 b1be 75d1 823d 0349 15be cb26 d5be
00000080: 8219 c4be 03bd 073c eb58 3cbe 4394 3dbe
00000090: a302 96be 381e 11be 45a5 7dbe 306b 113e
000000a0: 8f3d 653e a1c3 f5bd 1e8b f53c 15be f93d
000000b0: 0136 85be 662f 523e 3231 38be 4ede 80bc
000000c0: 2ca2 19be 1eb7 863b f66a bbbd 04b6 45be
000000d0: 0569 263e 947a 82be 52ea 4e3e 5c8d d9bd
000000e0: 5441 0dbe 5d96 44be 2dd2 08be b452 68be
000000f0: efd4 593e 081a aabe f202 283e 2c98 733d
00000100: 6987 4dbe 147f f2bb 6316 51bd 394e 9b3e
00000110: f55b 66bd fbb8 163e 30ec 873e 2530 a73d
00000120: 9d6c 653e a693 68be f069 03be 3af7 c43c
00000130: 1666 843d e281 9cbc 9fce debe 7396 5a3d
00000140: 6112 dd3d b05d 9cbd b96d 36be caf6 aa3d
00000150: 050a 3dbc e00b 1e3e 7de1 65be 95df f63d
00000160: ed6c bdbe 8889 433e 9de5 a53d 5152 22be
00000170: ef30 d3bd abb0 573c 38dd a6be 72e7 123e
00000180: e8ed 29be fafe 9fbc 2bdf 8c3e 28e5 463e
00000190: 97b3 d63d afe0 ab3d 845f 063e 3f61 783e
000001a0: 695d c73c 80e8 043e 41d9 053e 2934 23be
000001b0: e295 27be 9561 e53d 5db3 a0be fdea fe3c
000001c0: ef80 a4bd 05a9 cabd e26f b3bd 9bfd a63e
000001d0: 8912 c93c 9c82 673e 84a5 b33d 8100 103e
000001e0: 051e adbd 5d30 b4be 01da ac3d 5df2 0b3e
000001f0: 0b88 2d3e 692b fabd 9c1a 323e 4d88 28bd
00000200: 7c23 22be 63e5 4b3e 15b3 473e 785c a73d
00000210: bd59 643e bafc d43d d468 573e 81c3 6b3e
00000220: 8665 913d be5d a03d cdfa 8ebd 22d1 433d
00000230: 4bfc 1f3d 92f5 ffbd 01ef a9be 459c b13d
00000240: 1563 ebbd 5df2 4ebe 5985 733e c865 71bd
00000250: 26f8 42bc 2696 4cbe 64c2 85bd 85aa 46bd
00000260: a804 5abd a69e 063e c285 44be 934d 373e
00000270: 87ea 723e 6e14 f4bd 0b44 3c3e 8b0d 1c3e
00000280: 276a bc3d 367b 533e 4160 bcbc 703d 19be
00000290: 9712 b03d d3e2 2cbd 0797 00be 249c 843e
000002a0: 047f 613e eb26 82bd 9653 d43c 0204 89be
000002b0: 0ff6 f13d 7641 473e 8715 12be 2bf8 2e3e
000002c0: f659 07bd 30e0 3bbe 7ccc a03d ac33 383e
000002d0: 3a08 953c 567a ef3d e2e5 72be 3c87 71be
000002e0: e735 22be a683 953d da19 98bd ff5c b8bd
000002f0: b690 95be cd39 b73d 89fe eebc 6d36 41bc
00000300: b667 1c3d 9e5d 673d c806 94be cb9e 45be
00000310: e851 2dbc 6666 223e af6c 36be da08 533c
00000320: 4ed2 353e 7056 55be 363d 0bbc ed9b 2c3e
00000330: a988 e6bd 8589 063d af48 2d3e 91f6 9cbd
00000340: bab0 2c3e 771c 96be 9845 85bd 032c ffbc
00000350: 2152 eabd 1432 26bd 2f2f 3dbd 2eff 5abe
00000360: 12e5 80be d004 ef3c a001 6bbe 20ad 7b3d
00000370: 89c5 4dbe ab4b 41be c71a 803e 6950 733e
00000380: 81b6 83be fe0b b1bd 4607 10be dce0 22bc
00000390: 4aef 4e3e 89ae 09bd 827c 4cbe b673 83be
000003a0: c3d9 29be 6dc6 7abe 878a 34be 6196 1b3e
000003b0: 2bb9 5e3e 4ec0 55be 5a35 1abe 85ce 1abe
000003c0: 76d2 153e 294c 193e d314 003e d810 5bbe
000003d0: 9b88 a6bd 9a31 333e 11cd a9bd f647 5b3e
000003e0: 6af7 433e 63da 9d3c 87aa e63d f1be ac3d
000003f0: 001f 15bd 125f b4bd 90a4 83be dde0 b1bd
0.20186996 0.022751324 -0.47887576 -0.12896596 0.16650695 -0.00018912835 -0.1354446 -0.24179007
-0.32946888 -0.07045536 0.06883177 -0.13058378 -0.26345938 -0.15528913 -0.045824658 -0.2618735
0.16457713 -0.29269263 -0.10283315 -0.46133575 0.059732858 -0.23655918 -0.1418903 0.13822204
0.080120206 -0.21395649 0.07411274 0.16327956 -0.34704646 0.06387607 -0.14578633 -0.4163116
-0.3830071 0.00828481 -0.18393295 -0.18513589 -0.29298887 -0.14171684 -0.24770077 0.14201045
0.22386764 -0.12000204 0.029973563 0.121944584 -0.26017764 0.20525894 -0.17987517 -0.015731003
-0.1500327 0.0041111847 -0.091512606 -0.19307715 0.16251 -0.25484145 0.20206574 -0.10622665
-0.13794452 -0.19197984 -0.13361426 -0.22687799 0.21272634 -0.33222985 0.16407374 0.059471294
-0.20071186 -0.007400403 -0.05104674 0.30333117 -0.05624004 0.14719002 0.26547384 0.0816348
0.22404714 -0.22712573 -0.1283338 0.024043668 0.06464784 -0.019104902 -0.43517014 0.053366136
0.10794521 -0.07635057 -0.17815293 0.083478525 -0.011538033 0.15434217 -0.22449298 0.12054364
-0.36997166 0.19095433 0.08100436 -0.15851714 -0.10312068 0.0131646795 -0.32590652 0.14346102
-0.1659466 -0.019530762 0.27514014 0.19423354 0.10483473 0.08392464 0.13122374 0.24255846
0.024336534 0.12979317 0.13071157 -0.15937866 -0.1636577 0.11200253 -0.31386843 0.03111791
-0.08032405 -0.09895519 -0.08761574 0.3261536 0.024544971 0.22608417 0.08771804 0.14062692
-0.084529914 -0.35193148 0.084400184 0.13666673 0.16946428 -0.12215311 0.17392963 -0.04114561
-0.15833849 0.19911723 0.19501908 0.08171934 0.22299857 0.10399766 0.21036083 0.23023798
0.07099442 0.0783038 -0.0698143 0.047806866 0.039058965 -0.12498011 -0.33190158 0.08672384
-0.11493508 -0.20209642 0.23781337 -0.058934957 -0.0118999835 -0.19979152 -0.06531218 -0.048502464
-0.053227097 0.13146457 -0.1919165 0.17900686 0.23722278 -0.11917959 0.18385331 0.15239541
0.091999345 0.2065247 -0.022995116 -0.14964843 0.08597296 -0.042208504 -0.12557612 0.25900376
0.22021109 -0.06355079 0.025918763 -0.2676087 0.1181451 0.19458565 -0.14266025 0.17086856
-0.033044778 -0.1834724 0.07851502 0.17988461 0.0181924 0.116932556 -0.23720506 -0.23586744
-0.15840875 0.073005006 -0.07426806 -0.090021126 -0.29211968 0.089465715 -0.029174106 -0.011792761
0.038184844 0.056485765 -0.28911424 -0.19298856 -0.01057861 0.15859374 -0.17814897 0.012880528
0.17756006 -0.20833755 -0.008498481 0.16856356 -0.112565346 0.032845993 0.16922258 -0.07664216
0.16864291 -0.29318592 -0.065074146 -0.031148916 -0.11441446 -0.040575102 -0.046187576 -0.21386406
-0.25174767 0.0291771 -0.22949839 0.0614444 -0.20094885 -0.18876521 0.2502043 0.23761143
-0.25725177 -0.086448655 -0.14065275 -0.009941306 0.20208469 -0.033613715 -0.19969371 -0.25674218
-0.16586976 -0.24489756 -0.17630969 0.15194084 0.21750323 -0.2087414 -0.15059415 -0.15117843
0.14631066 0.14970459 0.12507944 -0.21393144 -0.08131524 0.1749939 -0.082910664 0.2141417
0.1913735 0.019269174 0.11262994 0.08434857 -0.036406517 -0.08807196 -0.2571149 -0.086854674

sequential/conv2d_1/Conv2D f4 [32, 3, 3, 16]
00000000: 3e7b 2fbe b876 8fbd 7652 6c3a bb72 b7bc
00000010: 4e66 f7bd 470a ad3e e826 013c ceee 8a3e
00000020: ef5f 9bbd 7738 cc3d 519b b4bc cda1 743c
00000030: 2b7a b83d 25af 18bd 0a08 e0bd 2d7c ae3b
00000040: 55ea 2ebe abb7 fdbd e8a6 6a3b 2f36 d9bd
00000050: 622c 43bd 3cd9 a63e 7102 b3bd cfc7 f53e
00000060: 36f6 a33d 8971 253d 1f0a 433e 7865 9ebd
00000070: 66b9 8abd ccbd 67bd ed14 9dbd e2d2 843c
00000080: 0a3e 19be 101a c1bd 21b7 253e 8c4f 9bbd
00000090: f562 84bd 1702 533e cb9c 0ebe 307b 803e
000000a0: 8b2c 02be 192f 1bbe f53f 623e 08d0 263b
000000b0: ae02 1e3d b70d 48be e6b1 14be 7df3 7a3d
000000c0: 32bf df3d 4df8 433d b31f 643d 9383 033e
000000d0: b79a 0f3c 503e 5b3c 60a1 7bba 9a7e 163e
000000e0: 0074 6d3e 1ad1 8f3d d6da c53e 0936 bdbc
000000f0: c62a 583d df53 ba3d 5ca6 983c cda3 85bc
00000100: 9262 0a3e 8b28 8a3d 50da 303d 0e49 803d
00000110: 9383 063d 8652 003e 4c61 493e c0b3 913e
00000120: 9abb b63e 692a 2b3d acf8 bc3e dbe3 71be
00000130: 0ece a7bd 9cea d53d 99e3 9fbd 50d4 e5bc
00000140: d94f 0e3d 5c7f 423c b204 59bc d4c8 e93d
00000150: 5c1e f1bc 7cc5 8c3d 6594 083e 61f2 5d3e
00000160: 960a 9b3e cb93 853d 260b b13e 3fcf 67be
00000170: 0969 0cbc 672e 193e 9d68 07be c8a7 15be
00000180: 0032 993d f87c dbbd 332a c1bd 051e 1bbe
00000190: 8d55 10bd 67d2 2fbd e048 273d de7f 7e3e
000001a0: 4d75 f3bd a13d 723d 5873 4abd b89e efbd
000001b0: 5bd3 0fbe f6a5 50be 7e18 ecbb e266 2a3d
000001c0: b70d bd3c fab3 a53d acb4 78be fa5f 53be
000001d0: 3787 3a3d 6753 acbd 2c89 9fbd ce24 383e
000001e0: d85d a83d 4fbd 63bd f49e eebd 399d 91be
000001f0: 1b53 6dbe c293 32be 6716 9d3b d3c7 21bc
00000200: be97 babd 04d3 a4bc 9819 45bd c1f6 3bbe
00000210: 81e7 263c 2be1 2abe 96e8 c2bd 888d d23d
00000220: ecab 08be f664 4ebc a392 8cbb 1e33 b4bc
00000230: cf58 b5ba bc9f 9ebd 3af9 343c 3ab1 843c
00000240: 7485 1ebc 9182 a93d 5cb7 d43d dac1 393e
00000250: a8e6 213d bba8 21bd f63d d6bc 8c53 b3bd
00000260: 7a15 c33d e6cd 863c e473 30bd df97 2e3d
00000270: e020 3b3e b17b 1b3e e9af 85bd b166 d6bc
00000280: e30c 853c b039 70bc 992e 27be c307 003e
00000290: 18f5 293b 747e 333c f03f 9ebd b4f1 a2bd
000002a0: e25e 35bd 0e5d 24bd 9fb0 47be 9745 6e3e
000002b0: de45 ddbc 2702 1d3d 840d 9cbd 8451 ea3d
000002c0: e1fd e43d 7f57 c73c b8a5 58be 60da bdbd
000002d0: 95e2 91bd 0533 4dbd 44bc 8ebd 69e8 6abe
000002e0: 89cc 58be 71d6 7c3c 25e5 7dbe 2c2e 1abe
000002f0: 17b2 49be 2242 9fbc e762 213d 5e0a 18bd
00000300: c00c 093d ba15 8dbd d76b 223e 367a f83d
00000310: 8a3c 993b ea03 6d3e 8f3a 343c ce89 8a3e
00000320: 557c 123d b05f c4bd 5091 803c cfa2 9b3e
00000330: 6068 443e 7766 e93d b1e4 e83d c91d 1f3d
00000340: e8cb e7bd b2d6 d03d c1c2 0cbd 40d1 883d
00000350: b386 66bc 4c94 483e 51fe 10be 106d 2c3e
00000360: 2a24 643d 7957 783d 9856 5ebe 289c e03d
00000370: 31f9 f93d 9d27 283e f6c9 9fbb 3a22 ee3d
00000380: 0b73 b4bd 9586 d23d 3856 87bd c1ca 41be
00000390: 5286 d83d 6ca1 603d ebbc b0bc fb49 f0bd
000003a0: b6d3 e7bd 8471 3f3d 7493 c2bd 3372 0ebc
000003b0: c7fe 50bd e57d 443d a5bc c13a c87a e33d
000003c0: 6ee8 84bc fa72 75bd 6003 243e 129b 823c
000003d0: 4b95 dfbd cece 883e b060 c1bd cc33 193e
000003e0: bb80 51bc 22e5 fdbd 2f47 babd 69a0 343e
000003f0: 0f50 873d c870 e03d 4e24 47bc 214d 87bd
-0.17136857 -0.07005066 0.0009014973 -0.022393575 -0.1208006 0.33796903 0.007882811 0.2713532
-0.07586657 0.09971707 -0.022046717 0.014931154 0.09007677 -0.037276406 -0.10939033 0.0053248615
-0.17081578 -0.123885475 0.003580505 -0.10606038 -0.04764975 0.32587612 -0.087407 0.48004004
0.080059454 0.04039148 0.1904683 -0.077341974 -0.06773643 -0.05657749 -0.07670007 0.016213838
-0.14965072 -0.09428799 0.1618314 -0.07583532 -0.06464187 0.20606266 -0.13927 0.25093985
-0.12712304 -0.15154685 0.2209471 0.0025453586 0.038576774 -0.19536482 -0.14520988 0.061267365
0.109251395 0.04784422 0.055694293 0.1284316 0.008764914 0.013381556 -0.0009598937 0.14696732
0.23188782 0.07022305 0.3864352 -0.023097055 0.052775167 0.090980284 0.018634014 -0.016313458
0.13514164 0.06746014 0.04317695 0.06263934 0.032840323 0.1253148 0.19666022 0.2845745
0.35690004 0.041788492 0.36908472 -0.23622076 -0.08193599 0.10445139 -0.07807083 -0.02805534
0.034744117 0.011871185 -0.013245748 0.11415258 -0.029433422 0.06873605 0.13337858 0.21674491
0.30281514 0.0652233 0.34578818 -0.22637652 -0.008569964 0.14959107 -0.132235 -0.14614785
0.0748024 -0.10717195 -0.09431877 -0.1514817 -0.035237838 -0.042925265 0.040840983 0.24853465
-0.11887608 0.059140805 -0.049426407 -0.11700195 -0.1404547 -0.20375809 -0.007205068 0.041602023
0.023077829 0.080909684 -0.24287671 -0.20642081 0.045539107 -0.08414345 -0.07789835 0.1798279
0.08221024 -0.05560046 -0.11651412 -0.28440264 -0.23176233 -0.17439178 0.0047939303 -0.009874302
-0.09110974 -0.020120151 -0.04812011 -0.18355848 0.010187031 -0.16687457 -0.095170185 0.10280901
-0.13346833 -0.012597313 -0.0042899414 -0.02199703 -0.0013835671 -0.07745311 0.011045748 0.01619779
-0.009675372 0.08276857 0.103865355 0.18140355 0.03952661 -0.039467555 -0.026152592 -0.0875617
0.09525581 0.016455602 -0.043079272 0.042625304 0.1827426 0.15183903 -0.06527693 -0.026172014
0.016241496 -0.014662191 -0.1632637 0.12502961 0.002593344 0.010955442 -0.07727039 -0.079562575
-0.04427994 -0.040127806 -0.1950097 0.23268734 -0.027010854 0.03833213 -0.076197654 0.11441329
0.11181236 0.024333714 -0.21156967 -0.09270167 -0.07123295 -0.050097484 -0.069695026 -0.2294022
-0.21171774 0.015431986 -0.24794443 -0.15056676 -0.19696842 -0.019440714 0.03940096 -0.037119262
0.033459425 -0.0688891 0.1586145 0.12132685 0.0046764063 0.23146024 0.01100029 0.27058262
0.035763104 -0.095885634 0.01569429 0.3039765 0.19180441 0.11396497 0.113717444 0.038846765
-0.11318189 0.101972 -0.03436542 0.06680536 -0.014070201 0.19587821 -0.14159514 0.16838479
0.05569855 0.060630295 -0.2171272 0.109672844 0.122057326 0.16421361 -0.0048763705 0.11627622
-0.08811005 0.10279576 -0.06608242 -0.18925 0.105724946 0.054841444 -0.021574458 -0.11732861
-0.113196775 0.046739116 -0.09500781 -0.008694219 -0.051024225 0.047971625 0.0014780952 0.11107403
-0.016224112 -0.059924103 0.16016912 0.015943084 -0.10917147 0.2672028 -0.0944227 0.14961165
-0.012787039 -0.12397219 -0.090956084 0.17639317 0.06607067 0.10959011 -0.012154652 -0.06606508

sequential/conv2d_2/Conv2D f4 [64, 3, 3, 32]
00000000: 02d6 1fbd 43b7 fe3b 5a8c 29bd b349 adbd
00000010: 60f6 bc39 8bbf 4d3c 87c9 6f3c 8147 dabb
00000020: dca5 4f3d 0f16 bb3b 4dad 423d 1e8a adbc
00000030: 9e1d 173d 1968 f2bd 425d 76bc beaf 6cbd
00000040: 6732 223d 0e9b a5bd d7b6 933d fee9 95bb
00000050: 0561 2ebd cee9 9cbd 8c6f a8bd e339 693d
00000060: 2b9b 97bd e641 d1bd a710 1bbd 801f 3cbd
00000070: e9cc d1bd 10c6 8cbc 9b48 923c 87fe c23c
00000080: 2e44 39bd 66a3 c8bc 8f41 70bb 9539 4a3b
00000090: 484d 433b 798a 2fbd 28d7 9abd 52ec 2bbd
000000a0: 73a1 b5bd ad4a b73b 1b9b b03b a17e 5bbd
000000b0: 4dca 0d3d f603 383d 369c 89bd a037 1abd
000000c0: 45e7 fcbb aeaf debb 318a e6bd fcf8 4d3d
000000d0: 6e8d 823c 1cdd debd bab0 cf3c 7ac1 923c
000000e0: 49e0 da3b 133e 163d d03b 943d 400f 8abc
000000f0: a014 afbd 6c93 a4bb 0770 45bc b3e3 05bd
00000100: fd87 f53c 2393 3dbd 9e2f 1bbd d8e7 e03b
00000110: 9388 033d b2ec 86bc eb25 8bbc fd99 963d
00000120: f36f 9fbc d957 a73c 9d0f 08bd 0f74 793d
00000130: 4dde 27bd f6c5 3b3c 94c6 8e3d 8ba5 683d
00000140: 7557 2b3c a6aa 403d cadb 71bd 2b0d 3e3b
00000150: 5ec1 5a3d eb09 c13d b6ca 563d 00ad fa3a
00000160: e988 aabd c077 aabd be15 96bc aab5 0abb
00000170: 0c8b 64bd bee3 493d 1a29 9f3d 6155 89bd
00000180: 6d63 39bd e661 9abc 2f46 93bd 714d b0bd
00000190: 41af 5fbd a9b6 adbd 1b56 7ebd 0de3 0abc
000001a0: 14d3 42bd 0469 93bb bddf 6b3d 9e03 ca3a
000001b0: 8015 1cbd d9e3 b9bd 7d14 963d 624a 54bd
000001c0: fa19 b0bd f70b 3c3d 7da5 75bd 113c 6a3d
000001d0: 625f e73c c9bb c1bc bccd c6bc d02d 9ebd
000001e0: 4889 8dbd 150d cfbd 4973 8e3d d3c5 29bd
000001f0: 96a0 abbc f419 debd 3bb8 d8bc 660a 183d
00000200: a2db 8b3b 5021 983b 2d34 34bd 0ec9 89bd
00000210: 52ff cebb 82cd 93bd 4cf3 d4bb 84dc cebd
00000220: df91 97bd 0865 84bd 9566 35bd bbad 093d
00000230: b947 2abb ed15 c7bd 4a04 34bb 0a7b 3bbd
00000240: dfdb b8bc 8b23 1dbd 7112 ac3c 9206 143d
00000250: d697 173d 8012 8cbd 7c23 debc c65a a9bd
00000260: 158a cc3c 913f 0c3d abb7 ddbd 4359 393c
00000270: 1908 c2bd 9691 ddbd 4692 713c 7a3f 543d
00000280: 4c37 afbd 80e9 823d 88c7 5bbd 3f6c bfbd
00000290: 76ed ccbc b65e 2f3a 4a64 79bd cf51 6ebd
000002a0: 8a64 e8bc 81af a5bc d59e 2b3d 1d65 febb
000002b0: f537 f33c 4dd7 99bd ea95 d9bd 5600 a1bd
000002c0: 4482 6dbd 6c7e c2bd f055 ccbd 2344 ab3b
000002d0: def9 353d 616e a9bd 949b 303d d695 7dbd
000002e0: fcb8 0bbd 38bd a1bd 3968 4e3d 29d4 97bd
000002f0: 4115 adbd c67d bfbd f330 c5bd 6461 e1bc
00000300: eaad f83c 88ce 083d cc75 6d3c 25fc 11bc
00000310: 24e1 033d ad82 d53a a338 8c3b bf52 d4bd
00000320: 4dee aebd 6f7d dfbc 54d3 94bc 177b 1c3c
00000330: 1a78 373d e257 123d 4b2c b5bd 3787 64bd
00000340: 3b5f 91bd c128 13bd 9a34 393d 655a 833c
00000350: 3e2f f33c b304 f0bd 0890 613b 20a7 82bd
00000360: 5867 193d 6119 483d 006e a8bc b123 3d3d
00000370: 1e96 e9bd 2bab 953b 820b 88bd 1fcd 9a3c
00000380: a563 61bd ede6 8c3d 7816 8bbd 9c74 793d
00000390: a1e4 bfbc f57a 48bd e8d1 f5bc 6131 903c
000003a0: 1987 5fbc b4b6 abbd 6ac0 db3b 37fd b0bd
000003b0: b466 99bd 57e5 353d ee49 56bd b6c3 97bd
000003c0: d241 babc e262 583d 2e6c 65bc 76b1 c0bd
000003d0: cc1f 06bd a9d5 f23c 37dc 503d 3dff cabc
000003e0: 36d0 033d d164 8c3d efe4 e13c ad65 c93c
000003f0: 26bd 163d 70af ba3a 952f 92bd fad8 01bd
-0.039022453 0.0077733113 -0.041393615 -0.08461323 0.00036041718 0.012557874 0.01463545 -0.006661356
0.050695285 0.0057094167 0.047528554 -0.021184023 0.03689348 -0.11836261 -0.015036883 -0.05778479
0.03959885 -0.08086215 0.07212608 -0.004575013 -0.042572994 -0.07661782 -0.08224401 0.05693997
-0.07402643 -0.10217647 -0.037857678 -0.04592848 -0.10244162 -0.017184287 0.017856887 0.023803009
-0.045231037 -0.024491977 -0.003666017 0.0030857075 0.0029800702 -0.042856667 -0.07560569 -0.04197342
-0.088686846 0.005593619 0.0053895838 -0.05358756 0.034616757 0.044925652 -0.06719248 -0.037650704
-0.007717999 -0.006795845 -0.11256827 0.050286278 0.01593658 -0.10882017 0.025352824 0.017914522
0.006679569 0.036680292 0.07237971 -0.016852975 -0.08548856 -0.005022457 -0.012050635 -0.032687854
0.02997207 -0.0462829 -0.03788721 0.0068635754 0.03211267 -0.016470287 -0.016985854 0.0735359
-0.019462561 0.020427631 -0.033218015 0.060901698 -0.040983487 0.011460772 0.069714695 0.0567985
0.010457863 0.047037743 -0.059047498 0.0028999548 0.053407066 0.0942572 0.052439414 0.0019125044
-0.08326895 -0.08323622 -0.018320914 -0.002116541 -0.055796668 0.049289457 0.077715114 -0.06705738
-0.045260835 -0.01884551 -0.07191121 -0.08608521 -0.054610495 -0.08482105 -0.062093835 -0.008476985
-0.04756458 -0.004498603 0.05758642 0.0015412455 -0.03810644 -0.090766616 0.073281266 -0.05182875
-0.08598705 0.045909848 -0.059972275 0.05718619 0.028243724 -0.023649113 -0.024268024 -0.07723582
-0.0691095 -0.10109917 0.06955583 -0.041448426 -0.020950597 -0.10844794 -0.026455035 0.03711929
0.0042681256 0.004642643 -0.04399507 -0.06727801 -0.0063170576 -0.07216932 -0.00649873 -0.10100654
-0.074008696 -0.06464583 -0.044287283 0.033612948 -0.0025982691 -0.09720979 -0.0027468377 -0.045771636
-0.02256578 -0.038363975 0.021004887 0.03613908 0.037010036 -0.06839466 -0.02711653 -0.08269267
0.024968186 0.03424031 -0.108260475 0.011312786 -0.09474201 -0.10818784 0.014744347 0.05181835
-0.08555469 0.06392193 -0.053657085 -0.09346818 -0.025015574 0.0006689833 -0.06088666 -0.058183488
-0.028368253 -0.020225288 0.04189952 -0.0077635185 0.029689768 -0.075117685 -0.10624297 -0.07861392
-0.05798556 -0.09496769 -0.09977329 0.0052266284 0.044427745 -0.08273006 0.04311712 -0.061910473
-0.03411196 -0.07897419 0.050392363 -0.07413513 -0.084513195 -0.09350161 -0.09628477 -0.02751226
0.030356366 0.03340009 0.014493417 -0.008910214 0.032197133 0.0016289555 0.0042792126 -0.10367345
-0.08541546 -0.027281491 -0.018167175 0.009550831 0.044792272 0.035728343 -0.08846339 -0.055793013
-0.07098242 -0.035927538 0.04521618 0.016034314 0.029685613 -0.11719646 0.0034418125 -0.06379533
0.037452072 0.04885233 -0.020560265 0.046176616 -0.11405586 0.004567524 -0.0664282 0.018896637
-0.05502667 0.06879983 -0.06791395 0.060902223 -0.023424448 -0.048945386 -0.030007318 0.01760167
-0.01364305 -0.08384457 0.006706287 -0.08642047 -0.07490292 0.04440817 -0.0523166 -0.07410376
-0.022736464 0.052828677 -0.014002843 -0.09408848 -0.032745168 0.029642897 0.050991263 -0.02477991
0.032180987 0.06855167 0.027574984 0.024584616 0.03680148 0.0014242958 -0.07137982 -0.031701066

sequential/conv2d/Relu;sequential/conv2d/BiasAdd;sequential/conv2d/Conv2D;conv2d/bias f4 [16, 3, 3, 3]
00000000: 2f23 4cba 45f8 85ba 9eaa 73ba 67b5 ab39
00000010: 55c9 89ba 4900 8cba e2af 223a 1587 593a
00000020: 7fc1 f6b7 c77d b638 c296 3dba b306 06b9
00000030: b457 143a 06eb 9439 8bf2 d8b9 4e98 81b9
00000040: a095 b039 93f2 473a 5006 3838 5744 533a
00000050: a5e3 9139 1fb4 dd39 6091 6b3a 6eff 3f3a
00000060: d30e 963a 2d7e 963a 6158 b239 3319 bc39
00000070: 8629 3ab9 2833 15b6 43ab e1b9 cb6e 8eb9
00000080: a37c bb39 2f6a 82ba da03 8eb7 e25b 2ab9
00000090: 6cac 393a e6d8 353a 590a 103a e998 1d3a
000000a0: 2945 9b37 dcda 3f39 3a6a acb9 2b66 abb9
000000b0: d198 80ba 4897 9f3a 8356 b13a 7ec8 5f3a
000000c0: de17 0d3a d428 a3b9 4a75 4339 f085 28ba
000000d0: db82 1eb9 895d c4b9 e186 383a 0324 593a
000000e0: f6c9 893a f7dc 36ba c1ae beb9 7228 023a
000000f0: 73cf 72ba c89e 48ba 4630 23ba 6653 2239
00000100: 3ecc 5d3a e1cf df37 260f 013a 8e96 2738
00000110: f6d5 ddb9 c696 afba 7439 beba 1a53 14ba
00000120: 413c 093a 9b40 b239 f23a f039 3da5 383a
00000130: f124 eab8 8a5d 3539 1760 24ba 1a33 a436
00000140: 51ff 2c39 69ad 8dba fe62 85ba db8c 53ba
00000150: 1a57 feb9 34d9 30ba 585d 4739 743f e739
00000160: 001f 233a 9b41 1cb8 8cfb 0d38 c08a ebb9
00000170: a26b 1bb9 b02e fab9 1361 fc39 6c0d ceb9
00000180: 0de2 c9b9 f161 02b7 cb0a 2638 9f98 1939
00000190: d301 a1b9 6f8a a639 6f75 97b8 cf86 2e3a
000001a0: 13cf 6f3a 4f4e a339 7125 0f3a 5745 a439
000001b0: 90f1 0aba 23dc f839 b85e 2aba 617d 583a
000001c0: b44f 553a 4ffb 5a39 afe0 cb39 7e3b 16b9
000001d0: ccde 8e3a b13a 263a 8f7c 5439 7ca1 32ba
000001e0: 929b a2b9 792c 06ba e6fd 113a ebcb 333a
000001f0: 36b3 6e3a e368 8a3a 59ae 653a 0842 1e3a
00000200: f00a deb8 e242 c3b9 e7b2 3e3a 46e8 b539
00000210: 2da6 8a3a 45c4 ee39 a45a 873a 6d0e 8fb9
00000220: a0f7 033a 4e01 1f39 862b 5d3a 5c11 ce39
00000230: 0228 ce39 b3a3 3c3a 06c3 8a3a a756 573a
00000240: d428 6db9 9fe5 8cba ffe2 45ba b525 45ba
00000250: bbe0 54ba 8721 17ba 1b08 82b8 5ad3 c6b4
00000260: 40d1 523a f62e 3fba 579f d738 73ab 53ba
00000270: e860 20ba 458a 0ab9 55c2 52ba 0bc6 563a
00000280: f4a6 a2b8 84b7 d9b7 e4d9 2cba bdc3 0dba
00000290: 9388 ad39 223c 1bba 7b8e 23ba 4c42 11ba
000002a0: a954 5fba f34c eab8 c86b 6eba 443d e639
000002b0: ea7a eb39 ee35 103a fa1b 9a39 e3e7 b1b9
000002c0: 5e00 fd38 8f6e 11b9 21b4 16ba ace3 c5b9
000002d0: e785 4e3a 7563 103a 26d8 0b3a 949e e739
000002e0: 445b 8938 959e f3b8 6852 813a 9989 223a
000002f0: 5e54 703a 2604 8d3a 3788 3a3a 79c1 bd39
00000300: 5671 453a 602d 3b3a 50f3 993a 21a0 b53a
00000310: 7053 8834 05d5 313a 4c84 22b9 ddac 99b7
00000320: 061b 0036 662b 22ba 318e c7b9 d67a 253a
00000330: 0485 e4b9 1466 ff38 048b 8db9 0dc8 afb9
00000340: fce4 19ba 2600 5cba 1fe0 baba c880 90ba
00000350: ae1b d7b9 29ae 2cb9 51a2 69ba 4e68 9bba
00000360: d93a 15ba fdbf acb7 4b4e d5b9 764a 08ba
00000370: bc6b 99ba 5e4b 85b9 8663 2bba f583 66ba
00000380: fc83 8aba d80f a6b8 98c6 1138 5d8e e3b9
00000390: 945f 9ab9 6f6c 65b9 7cbd e939 72e0 8039
000003a0: a73e 463a 4e47 183a 3727 2a39 ef28 25b8
000003b0: c34d 083a 288a 843a 25a7 0f3a 777f ceb9
000003c0: d0c9 3339 2db8 7b3a 4c39 363a 2476 183a
000003d0: 2af6 42b9 790d af39 60b2 e3b9 8cee 27ba
000003e0: e19b 8939 6d5e e4b9 2fb8 ccb9 4c7a 00ba
000003f0: 1f81 233a c52c 5c3a 7449 8339 4081 f539
-0.0007787225 -0.0010221085 -0.00092951383 0.00032750817 -0.0010512272 -0.0010681237 0.0006206018 0.0008298022
-2.9415589e-05 8.701864e-05 -0.00072322425 -0.00012781731 0.0005658821 0.00028403866 -0.0004137944 -0.00024718273
0.00033680815 0.0007627394 4.3874898e-05 0.00080591947 0.00027826164 0.00042286605 0.0008986201 0.0007324134
0.001144851 0.0011481695 0.00034016653 0.0003587693 -0.00017753811 -2.2232507e-06 -0.00043042944 -0.00027166898
0.0003576028 -0.0009949858 -1.6929513e-05 -0.00016246692 0.0007082883 0.00069369224 0.0005494706 0.000601186
1.8509645e-05 0.00018296711 -0.0003288554 -0.00032691783 -0.0009811168 0.0012175823 0.0013529811 0.00085366506
0.00053822796 -0.00031120202 0.00018640343 -0.00064286496 -0.00015116802 -0.00037453722 0.00070391415 0.0008283259
0.001051246 -0.00069756754 -0.00036369826 0.0004965133 -0.000926248 -0.0007653055 -0.000622515 0.00015480592
0.00084609154 2.6680473e-05 0.0004923217 3.9956118e-05 -0.00042311818 -0.0013396374 -0.0014512972 -0.0005658135
0.0005235114 0.0003399894 0.00045820285 0.00070436654 -0.000111648704 0.00017296351 -0.0006270422 4.89353e-06
0.00016498311 -0.0010809127 -0.0010176597 -0.00080700003 -0.0004851155 -0.0006746233 0.00019012892 0.0004410703
0.0006222576 -3.72544e-05 3.385129e-05 -0.0004492607 -0.00014822048 -0.000477185 0.00048137511 -0.00039301382
-0.00038506128 -7.771408e-06 3.9587536e-05 0.00014648073 -0.00030709672 0.00031765128 -7.222115e-05 0.0006657661
0.0009147983 0.00031148127 0.00054605963 0.0003133218 -0.0005300278 0.0004746626 -0.00064990995 0.0008258429
0.0008137182 0.0002088372 0.0003888658 -0.00014327277 0.0010900139 0.0006341143 0.00020264297 -0.0006814224
-0.00031014957 -0.0005118321 0.0005569145 0.0006858694 0.0009105684 0.0010559823 0.00087616366 0.0006037061
-0.00010587822 -0.0003724313 0.00072745833 0.00034696067 0.0010578089 0.0004554113 0.0010326696 -0.00027285833
0.00050341524 0.00015163908 0.00084369665 0.00039304316 0.0003932119 0.0007196024 0.0010586686 0.00082145113
-0.00022617291 -0.0010749585 -0.00075487787 -0.00075205724 -0.00081206457 -0.0005765189 -6.200393e-05 -3.7034152e-07
0.0008042045 -0.00072930695 0.00010281678 -0.0008074559 -0.0006117956 -0.00013212215 -0.0008039822 0.0008192963
-7.7558594e-05 -2.5953872e-05 -0.00065937475 -0.00054078904 0.00033098887 -0.0005921741 -0.0006239188 -0.000554119
-0.000851939 -0.000111723224 -0.000909504 0.00043914665 0.0004491427 0.00055012 0.00029394013 -0.0003393284
0.000120640485 -0.00013869464 -0.0005748887 -0.00037744397 0.00078782294 0.00055079843 0.0005334638 0.00044177903
6.5496686e-05 -0.00011616681 0.0009866478 0.0006200313 0.0009167845 0.0010758683 0.00071156345 0.00036193038
0.0007531842 0.0007140245 0.0011745486 0.0013856926 2.5392683e-07 0.00067837565 -0.00015498808 -1.8319517e-05
1.9089216e-06 -0.00061862764 -0.0003806218 0.00063125545 -0.00043586653 0.00012178361 -0.0002699719 -0.0003352765
-0.0005870608 -0.0008392356 -0.0014257467 -0.0011024708 -0.0004102862 -0.00016468078 -0.00089124317 -0.0011856647
-0.0005692668 -2.05934e-05 -0.0004068486 -0.0005199084 -0.0011705081 -0.0002542389 -0.00065379625 -0.0008793467
-0.0010567899 -7.918448e-05 3.475565e-05 -0.00043402883 -0.0002944438 -0.00021879537 0.000445824 0.00024581287
0.00075624365 0.0005808965 0.00016227072 -3.9377188e-05 0.00051995757 0.0010111975 0.00054799236 -0.0003938635
0.00017145951 0.00096023345 0.0006951287 0.0005815944 -0.00018592985 0.0003338864 -0.00043429714 -0.00064060907
0.00026246815 -0.00043557902 -0.0003904714 -0.0004901036 0.0006237197 0.0008399005 0.00025040994 0.0004682634
